cnn_model_weights.pth (torch, 3232 bytes, 4 tensors)

conv1.weight f4 [16, 1, 3]
-0.07392457 0.30718508 -0.25971982 -0.23810385 0.3269654 0.6456281 0.45230985 0.2808037
0.008612276 -0.4458298 -0.033663936 0.16068734 0.4475992 -0.025154537 0.24336879 0.3635783
0.36609703 0.16271636 0.5641894 0.074649416 0.34967554 -0.4438678 -0.35527766 -0.39035502
-0.018380675 0.36508268 0.45055345 0.625558 0.463936 -0.1966526 -0.4706442 -0.5399673
0.5156468 -0.18850647 -0.34506133 -0.28949592 -0.048528332 0.618747 -0.51684684 0.4658188
-0.32307562 -0.5079222 0.19589595 0.37740207 -0.42061588 -0.52093285 -0.48317027 0.115470566
00000000: c465 97bd 5d47 9d3e fff9 84be 7fd1 73be
00000010: 0268 a73e e247 253f 2895 e73e 81c5 8f3e
00000020: 811a 0d3c ce43 e4be 32e3 09bd 398b 243e
00000030: b92b e53e e310 cebc ab35 793e ef26 ba3e
00000040: 1271 bb3e 1e9f 263e b76e 103f cbe1 983d
00000050: ac08 b33e a442 e3be f4e6 b5be 9ddc c7be
00000060: 1293 96bc 1eec ba3e f1ae e63e 9224 203f
00000070: 0589 ed3e 4d5f 49be 47f8 f0be 4c3b 0abf
00000080: 6e01 043f d707 41be e1ab b0be cf38 94be
00000090: a5c5 46bd 3466 1e3f 1350 04bf cd7f ee3e
000000a0: 2b6a a5be 3007 02bf f398 483e d83a c13e
000000b0: f75a d7be db5b 05bf 1862 f7be d57b ec3d

conv1.bias f4 [16]
0.5661184 0.4116248 -0.033018507 -0.22770311 -0.09746475 0.1742848 -0.31906435 0.48120856
-0.45099008 -0.3467325 0.14264788 -0.087625906 -0.14173198 0.06814935 0.50434285 -0.36642346
00000000: 23ed 103f 7cc0 d23e 6a3e 07bd 012b 69be
00000010: 999b c7bd b777 323e 675c a3be f860 f63e
00000020: 2ce8 e6be ec86 b1be 4912 123e 3675 b3bd
00000030: 3022 11be e391 8b3d 9d1c 013f db9b bbbe

fc1.weight f4 [2, 96]
-0.08710324 -0.13603047 0.04025173 0.05981233 0.101646245 -0.12516102 -0.02002459 0.024196465
-0.0008971068 -0.1092957 0.114280395 0.10058284 0.14367774 -0.1052813 0.0004779988 -0.0023935826
0.1191808 -0.008342234 -0.16351712 -0.09900078 0.018123897 0.098119915 0.18033285 0.13658987
-0.10203271 -0.08099446 0.088289425 0.11039122 0.082475595 0.13924357 0.16281699 -0.16049649
-0.059592627 -0.05056209 0.008547179 0.14743866 -0.117169745 0.046745576 -0.06474354 0.089327075
0.0846612 0.1725268 0.03008034 0.021575863 -0.023885667 -0.02667941 -0.035964467 -0.040049788
0.09565192 -0.10497749 0.042743154 -0.2261277 0.17485687 -0.011347828 0.040678203 -0.023843585
-0.04962739 0.00933967 0.18965739 0.03134702 -0.10967835 0.056054022 -0.03588119 -0.0130891055
-0.11189549 0.022436133 -0.047523744 -0.021661397 -0.099934295 0.003584752 0.031921778 -0.027123187
0.06378857 -0.01877534 -0.020197686 -0.04167654 0.060387947 -0.096154176 -0.14224042 0.053133182
0.03534868 -0.01674697 -0.04493091 -0.06641591 0.06420466 0.030317089 0.08204808 -0.06747728
0.06615632 -0.030364659 -0.20051882 0.009215159 0.007196001 0.1443484 0.014415196 0.08647864
-0.070068285 -0.048393212 0.11104366 0.022429787 -0.120836906 0.082258694 0.04414706 0.08214965
0.036206987 0.0076619945 -0.11598937 -0.15866621 -0.18223989 0.16596627 -0.05200505 0.14126946
-0.1142929 -0.04261287 0.104499795 0.109142445 0.016275385 -0.1309332 -0.02005658 -0.12287626
-0.025486266 -0.05758817 0.009865602 0.049200412 -0.08831338 0.030511856 -0.007859669 0.09367819
-0.06699321 0.097004026 -0.13881324 0.018256238 -0.0010716607 0.03436746 0.05337255 0.0026867674
-0.035377417 -0.20445205 0.02201221 -0.050115958 0.08029984 -0.039109327 0.064483 0.09092942
-0.069122314 -0.020069482 -0.013353952 0.17831208 -0.18102072 0.013569237 -0.041186295 0.081885636
-0.039320737 0.07317844 -0.18291165 0.011868137 0.13617 0.033289798 0.009118268 0.021336967
0.053852648 -0.05853557 0.061705943 0.0241313 0.119878106 0.02146036 0.037607152 0.13024677
-0.018351479 0.016315807 -0.021005342 0.052045316 -0.100366235 0.052929956 0.08015649 0.076891825
-0.017191011 -0.074158765 0.09552135 -0.0014652859 -0.082677856 0.01382396 0.06090722 -0.061840624
-0.14029883 0.03518556 0.17745015 -0.035812106 0.13404958 -0.055416282 0.08680888 0.06250171
00000000: 2f63 b2bd 924b 0bbe ffde 243d c6fd 743d
00000010: e82b d03d 362a 00be 9c0a a4bc aa37 c63c
00000020: d12b 6bba 6dd6 dfbd d70b ea3d 60fe cd3d
00000030: 4220 133e b99d d7bd ea9b fa39 a7dd 1cbb
00000040: 1015 f43d dead 08bc 0871 27be ecc0 cabd
00000050: 9178 943c 18f3 c83d 2da9 383e 37de 0b3e
00000060: 87f6 d0bd 6ce0 a5bd 16d1 b43d cb14 e23d
00000070: f7e8 a83d de95 0e3e 7fb9 263e 3159 24be
00000080: 6617 74bd 321a 4fbd 7809 0c3c 29fa 163e
00000090: b1f6 efbd 4a78 3f3d 4398 84bd 1df1 b63d
000000a0: da62 ad3d deaa 303e 0c6b f63c ddbf b03c
000000b0: e0ab c3bc c78e dabc 7a4f 13bd 3f0b 24bd
000000c0: 27e5 c33d 70fe d6bd 7213 2f3d 058e 67be
000000d0: ae0d 333e 3eec 39bc 309e 263d 9f53 c3bc
000000e0: 1746 4bbd 6a05 193c 8c35 423e bc65 003d
000000f0: 0b9f e0bd e798 653d 28f8 12bd b073 56bc
00000100: 7629 e5bd fbcb b73c 42a8 42bd 3e73 b1bc
00000110: 5aaa ccbd 29ee 6a3b 69c0 023d 7231 debc
00000120: 95a3 823d bece 99bc 9e75 a5bc 05b5 2abd
00000130: 5a59 773d 7bec c4bd 79a7 11be 2ea2 593d
00000140: c7c9 103d f130 89bc 7909 38bd 1105 88bd
00000150: bc7d 833d 8b5b f83c d308 a83d 8731 8abd
00000160: f77c 873d 4ebf f8bc ce54 4dbe 2efb 163c
00000170: 6ecc eb3b 11d0 133e b72d 6c3c b71b b13d
00000180: f67f 8fbd f637 46bd dc6a e33d acbe b73c
00000190: 5779 f7bd 3f77 a83d 8cd3 343d 133e a83d
000001a0: c74d 143d 7811 fb3b d68b edbd 6579 22be
000001b0: 189d 3abe 10f3 293e 3f03 55bd f1a8 103e
000001c0: 6512 eabd d58a 2ebd fd03 d63d 1386 df3d
000001d0: f553 853c 5a13 06be b24d a4bc 8ca6 fbbd
000001e0: 93c8 d0bc 93e1 6bbd 55a3 213c 5f86 493d
000001f0: a5dd b4bd 00f4 f93c d7c5 00bc 5ada bf3d
00000200: bc33 89bd 0caa c63d 0f25 0ebe 1b8e 953c
00000210: f776 8cba e5c4 0c3d 2d9d 5a3d 7a14 303b
00000220: e9e7 10bd e15b 51be f352 b43c 6446 4dbd
00000230: 3e74 a43d 1a31 20bd aa0f 843d 3439 ba3d
00000240: 0090 8dbd c168 a4bc 89ca 5abc 7197 363e
00000250: 7f5d 39be 8151 5e3c f6b2 28bd a8b3 a73d
00000260: c80e 21bd 94de 953d 314d 3bbe 9372 423c
00000270: 2670 0b3e e25a 083d ca64 153c ddca ae3c
00000280: 9894 5c3d fec2 6fbd 5fbf 7c3d 01af c53c
00000290: a782 f53d a3cd af3c f509 1a3d 695f 053e
000002a0: d755 96bc baa8 853c 6513 acbc 782d 553d
000002b0: d08c cdbd 15cd 583d 1629 a43d 7679 9d3d
000002c0: 2ad4 8cbc 8de0 97bd b3a0 c33d d60e c0ba
000002d0: 0253 a9bd e47d 623c d979 793d 984c 7dbd
000002e0: 7faa 0fbe bc1e 103d 7eb5 353e b7af 12bd
000002f0: 4b44 093e 2ffc 62bd dbc8 b13d e600 803d

fc1.bias f4 [2]
-0.06971637 -0.020413151
00000000: 75c7 8ebd 7b39 a7bc
