lstm_model.pth (torch, 296550 bytes, 6 tensors)

lstm.weight_ih_l0 f4 [512, 13]
0	0xbab54da4	-0.0013832343
1	0xbd62df0f	-0.055388507
2	0xbdd91d23	-0.106012605
3	0xbd41c032	-0.047302432
4	0xbc08d01d	-0.008350399
5	0x3dfc2bba	0.12313028
6	0xbdc17295	-0.09445683
7	0xbd1ea072	-0.03872723
8	0x3cf5cda6	0.030005287
9	0xbc646174	-0.01393925
10	0x3c25b7d8	0.010114633
11	0x3dbcb601	0.09214402
12	0xbc9c9804	-0.019115455
13	0xbda2963b	-0.079388104
14	0xbe37d51f	-0.17952393
15	0xbd4aee2b	-0.04954354
16	0xbd50e5eb	-0.051000517
17	0xbd8d9c6e	-0.06914602
18	0xbce7c11b	-0.028290322
19	0x3e18266a	0.14858404
20	0x3a6b76c2	0.0008982235
21	0x3e212dd7	0.15740143
22	0x3e05ccca	0.13066402
23	0xbd04bfe7	-0.032409575
24	0x3dd9f46c	0.10642323
25	0x3d84e05f	0.06488108
26	0x3d995cf2	0.07488431
27	0xbe48d71b	-0.19613306
28	0xbd0eae4c	-0.03483419
29	0xbd6f3182	-0.058396824
30	0xbd32b28e	-0.043627314
31	0x3d8107e0	0.0630033
32	0xbc96c56c	-0.018404685
33	0x3dd2716c	0.1027554
34	0x3c11e2f2	0.008904206
35	0x3bd91d71	0.006625824
36	0xbbb29ac5	-0.005450579
37	0x3d700a38	0.058603495
38	0xbdecd1f8	-0.11563486
39	0xbe24c5c7	-0.16091071
40	0xbd8c573f	-0.06852578
41	0x3d575927	0.052575257
42	0x3d174fd5	0.036941368
43	0xbe40b0b8	-0.18817413
44	0x3dd36ae5	0.10323123
45	0xbd2199a7	-0.039453175
46	0x3dda4b9a	0.10658951
47	0x3d8403e7	0.06446057
48	0xbdbee215	-0.093204655
49	0x3db13f9a	0.08654709
50	0x3d90bad2	0.07066883
51	0x3c83bf31	0.016082378
52	0x3d08d54e	0.03340655
53	0xbdf2d344	-0.11856702
54	0xbdec8f3c	-0.11550757
55	0x3d352850	0.044227898
56	0xbdb19e22	-0.086727396
57	0x3dee4e57	0.11636036
58	0xbc5088f3	-0.012727964
59	0xbc38c145	-0.011276548
60	0x3e057dd8	0.13036287
61	0xba3ef2b6	-0.00072840916
62	0x3dab5f77	0.08367818
63	0xbd145b72	-0.03622002
64	0x3cd6f616	0.02624039
65	0xbde60478	-0.11231321
66	0x3c88d5c8	0.016703501
67	0x3ddfd5f0	0.10929477
68	0x3d913159	0.070894904
69	0xbe03ca11	-0.12870051
70	0x3c00cced	0.007861358
71	0xbdec0737	-0.115248136
72	0x3caa5f3d	0.020797366
73	0xbc720e5c	-0.014773931
74	0x3d66fcfd	0.056393612
75	0xbc565ae7	-0.013083196
76	0xbe2b7298	-0.16742933
77	0x3cbbda04	0.022931106
78	0xbda7b421	-0.08188654
79	0xbd951172	-0.07278718
80	0xbdee50f6	-0.11636536
81	0xba64fec4	-0.0008735473
82	0xbd2fa973	-0.04288621
83	0x3cbb5a47	0.022870196
84	0x3ca11d8e	0.019667413
85	0x3d3137bb	0.04326604
86	0x3d8d7c1a	0.06908436
87	0x3c3c0fd8	0.011478387
88	0x3dc4ee0f	0.096157186
89	0xbc9850da	-0.01859324
90	0x3d1d827b	0.038454514
91	0xbd2104ee	-0.039311342
92	0xbdb0746e	-0.08615957
93	0x3c534136	0.0128939655
94	0xbc039487	-0.008031017
95	0x3bfed1a7	0.0077764574
96	0xbdab7793	-0.08372416
97	0xbcbbfa8e	-0.022946622
98	0xbd9e1124	-0.07718113
99	0xbd09a200	-0.03360176
100	0x3d923717	0.07139414
101	0xbde3dc4c	-0.11126003
102	0xbdf6c9c1	-0.120502
103	0xbc105847	-0.008810109
104	0xbe00aa1a	-0.12564889
105	0xbd3700cd	-0.044678498
106	0x3d959f3f	0.073057644
107	0xbd89c38e	-0.06726752
108	0xbcd28d46	-0.02570213
109	0xbdf1fc3f	-0.1181569
110	0xbe043cb5	-0.12913783
111	0xbdb64e55	-0.089016594
112	0xbbd9144c	-0.006624734
113	0x3e362dfd	0.1779098
114	0xbda6c2c3	-0.081426166
115	0xbdd0d048	-0.101959765
116	0xbde63e20	-0.11242318
117	0xbd8a86f8	-0.067640245
118	0xbd93e4f6	-0.07221405
119	0xbc0c2a71	-0.008555041
120	0x3d82d335	0.06387941
121	0xbd06c9e5	-0.032907385
122	0xbb82d1fa	-0.0039923163
123	0xbc0c3579	-0.008557671
124	0xbde672a1	-0.112523325
125	0x3e3809de	0.17972514
126	0x3dd756e3	0.10514619
127	0xbddcc753	-0.107802056
128	0x3d355140	0.04426694
129	0x3de3eddd	0.11129353
130	0xbcb72152	-0.022354756
131	0xbd2c4bf7	-0.042064633
132	0xbd31fd6f	-0.043454584
133	0x3d316768	0.043311507
134	0xbdb5639e	-0.08856891
135	0xbd856c7c	-0.065148324
136	0xbd5f394b	-0.054498
137	0x3d3b7289	0.045763526
138	0x3d1a0df2	0.037610956
139	0x3bf902d3	0.0075992136
140	0x3c1ee325	0.00969771
141	0x3cd86773	0.026416516
142	0x3da2e490	0.07953751
143	0x3db2db25	0.08733205
144	0xbe1a7086	-0.15081987
145	0x3d859560	0.06522632
146	0xbd065d61	-0.032803897
147	0xbda6e2bb	-0.08148714
148	0x3d142fed	0.036178518
149	0x3dcaa15a	0.098940566
150	0x3e020970	0.12698913
151	0xbdc7b246	-0.097508
152	0xbe16885a	-0.14700451
153	0x3bbbb9be	0.0057289293
154	0x3dc1298d	0.09431753
155	0xbc622c10	-0.013804451
156	0x3b9fc24f	0.0048754583
157	0xbe05550d	-0.13020726
158	0x3d623c57	0.055233326
159	0xbd22f394	-0.039783075
160	0xbda4c35d	-0.08045075
161	0x3cfe84a5	0.03106911
162	0x3da8ecc5	0.08248285
163	0x3cb2467a	0.021762121
164	0xbcfd8ede	-0.030951913
165	0x3c92e219	0.017930077
166	0x3da8eaa8	0.08247882
167	0xbcf88d66	-0.030340862
168	0x3d28e49a	0.041233636
169	0xbdd7dd75	-0.105402865
170	0xbdcdc209	-0.10046775
171	0xbc8bc3bf	-0.017061112
172	0xbcb73655	-0.022364775
173	0x3c76331e	0.015026836
174	0xbdbc9707	-0.09208494
175	0x3ad95379	0.0016580663
176	0x3da68e5c	0.08132622
177	0xbe3c447c	-0.183855
178	0xbe0c6e29	-0.13713898
179	0x3e1f3773	0.15548496
180	0xbd998b3e	-0.074972615
181	0xbd402494	-0.046909884
182	0xbd34fe47	-0.04418781
183	0x3c9ea7bb	0.01936709
184	0x3d070b60	0.032969832
185	0xbdf109f0	-0.117694736
186	0xbd6364a1	-0.05551589
187	0x3bdfac76	0.006825979
188	0xb9cd3518	-0.00039140205
189	0x3d481cb7	0.04885551
190	0xbd3d3774	-0.046195462
191	0x3de3753a	0.111063436
192	0xbc24bd23	-0.010054859
193	0xbe50a786	-0.20376405
194	0x3bc7d77f	0.006098687
195	0xbc3eaab6	-0.01163738
196	0xbd301336	-0.04298707
197	0x3d3c8227	0.04602256
198	0xbcee822f	-0.02911481
199	0xbd3b6d5a	-0.045758583
200	0xbdde4a40	-0.10854006
201	0x3cb46b3d	0.022023791
202	0x3d78b56b	0.06071989
203	0xbd85c59d	-0.06531832
204	0x3dacdcef	0.08440577
205	0x3df11978	0.11772436
206	0xbc37103a	-0.011173302
207	0xbd1bbcd4	-0.038021877
208	0xbe0a8df7	-0.13530718
209	0xbd080e5b	-0.033216815
210	0xbd2c3527	-0.042042878
211	0x3dbe8255	0.093022026
212	0xbd0beac2	-0.03415943
213	0xbd3174c2	-0.04332424
214	0xbd31dfee	-0.043426447
215	0xbd21a0e7	-0.03946009
216	0xbc965c91	-0.018354686
217	0x3dec64ce	0.115426645
218	0xbe0f3b19	-0.13987388
219	0x3dba0890	0.090836644
220	0x3df857b8	0.12126106
221	0xbe169a86	-0.14707384
222	0xbe0933b2	-0.13398626
223	0x3c9c28d1	0.019062432
224	0xbd0532d5	-0.03251918
225	0xbdce4986	-0.10072617
226	0xbd517b68	-0.05114308
227	0xbc9a9b81	-0.018872978
228	0x3e2956b7	0.16536985
229	0xbd97fc14	-0.07421127
230	0x3c551766	0.013006067
231	0x3dacf133	0.084444426
232	0xbcd6f1f7	-0.026238425
233	0xbd30aa86	-0.043131374
234	0xbda347b8	-0.07972664
235	0x3ccf58a2	0.025310818
236	0xbda1d335	-0.07901613
237	0x3d0e02e2	0.034670718
238	0xbcdcaf6e	-0.02693912
239	0x3d9b1786	0.07572846
240	0x3dcf801b	0.10131856
241	0x3d83f907	0.064439826
242	0x3e31408e	0.17309782
243	0x3dc87f36	0.097898886
244	0x3d4075ab	0.046987217
245	0x3d6c0b88	0.057628185
246	0xbd8e14d6	-0.06937568
247	0xbdb2fc84	-0.0873957
248	0x3cf5e0a4	0.030014344
249	0xbd807331	-0.06271971
250	0x3d057840	0.032585382
251	0xbd5c7a69	-0.053827677
252	0x3d39da25	0.045374054
253	0xbcc32525	-0.023821423
254	0xbbf84cca	-0.0075775133
255	0x3e544dba	0.20732775

lstm.weight_hh_l0 f4 [512, 128]
0	0x3d69f99a	0.057122804
1	0xbdab5c9a	-0.08367272
2	0x3d74ffbe	0.059814207
3	0x3d918ea7	0.07107287
4	0xbc07babe	-0.008284269
5	0xbc492899	-0.012277746
6	0x3d3015e4	0.042989627
7	0x3da73509	0.081644125
8	0xbd709196	-0.05873259
9	0xbd30401b	-0.043029886
10	0x3d32f726	0.04369273
11	0xbd2cf8fb	-0.042229634
12	0x3d56ba86	0.052423976
13	0x3db0fab6	0.08641569
14	0x3d7ee4cf	0.062229928
15	0x3bcd0b74	0.006257469
16	0xbda75a8a	-0.08171566
17	0x3d4ee4f3	0.05051131
18	0xbc896f94	-0.016776837
19	0x3db1edf5	0.08687965
20	0xbc1770ad	-0.009243173
21	0x3d0571e0	0.032579303
22	0xbd0d0649	-0.034429822
23	0xbd3788a6	-0.044808052
24	0xbd051e64	-0.032499686
25	0xbce13434	-0.027490713
26	0xbcce924e	-0.025216248
27	0xbcd9762f	-0.026545612
28	0xbd6b2389	-0.057406936
29	0xbcb9b494	-0.022669114
30	0x3d80d21a	0.06290074
31	0x3d95eb46	0.073202655
32	0x3c46b35c	0.012127724
33	0xbd0b99c0	-0.034082174
34	0xba41b3fc	-0.00073891855
35	0xbd898fb5	-0.06716863
36	0xbbe9c4be	-0.007134049
37	0x3dae1b28	0.085012734
38	0x3d2f18db	0.042748313
39	0xbd5579d7	-0.05211815
40	0xbd855de5	-0.065120496
41	0xbd1a4f84	-0.03767349
42	0x3b9c1e1e	0.0047643324
43	0xbd89cfb6	-0.06729071
44	0xbcef0001	-0.029174807
45	0x3d5fb1f5	0.054613072
46	0xbae027d6	-0.0017101716
47	0xbda4bfae	-0.080443725
48	0x3da1ac10	0.078941464
49	0x3d82a8a4	0.06379822
50	0x3d99e841	0.07515002
51	0xbd2b3be1	-0.04180515
52	0x3db14bf2	0.086570635
53	0xbc45c8d2	-0.012071805
54	0xbd105106	-0.03523352
55	0xbdab798b	-0.08372792
56	0x3d15d4b3	0.0365798
57	0xbd285a99	-0.041102026
58	0x3afd7802	0.0019338133
59	0x3d80caea	0.06288703
60	0x3d61d0f6	0.05513092
61	0xbb7be9e8	-0.003843898
62	0xbdb43634	-0.08799401
63	0x3d1171fa	0.035509087
64	0x3cd16465	0.025560567
65	0xbd4cf82f	-0.050041374
66	0xbd9209ab	-0.0713075
67	0x3d67194e	0.056420617
68	0x3d5e652a	0.054295696
69	0xbc2a2101	-0.010383845
70	0x3b937a1c	0.0045006406
71	0x3bbf2315	0.0058330395
72	0xbd7439ac	-0.059625313
73	0x3ce7a0ac	0.028274857
74	0xbd8e9589	-0.06962115
75	0xbd26deba	-0.040739752
76	0xbd6625f0	-0.056188524
77	0x3d4739ab	0.04863898
78	0x3cea32d5	0.028588692
79	0x3d82007a	0.06347747
80	0xbdac6919	-0.08418483
81	0x3c9bade3	0.019003814
82	0x3c896a30	0.016774267
83	0x3d8d3483	0.068947814
84	0xbd8be675	-0.068310656
85	0xbd8bc066	-0.068238065
86	0x3d9d8118	0.07690638
87	0x3d1cff30	0.038329303
88	0xbb840e82	-0.00403005
89	0xbd002fc1	-0.03129554
90	0x3c8820e0	0.016617239
91	0x3caf2bd9	0.021383213
92	0xbce19e67	-0.027541352
93	0x3d589153	0.052872967
94	0xbd9d9f0e	-0.07696353
95	0xbd2cd179	-0.042191956
96	0xbc99e83b	-0.018787494
97	0x3d9c60cd	0.07635651
98	0xbc06aa76	-0.008219352
99	0x3d51bbb9	0.051204417
100	0xbdb3d33b	-0.087805234
101	0x3a52c69c	0.00080404594
102	0x3dadc441	0.08484698
103	0x3d4bf61a	0.049795248
104	0x3bf1a3bc	0.007374255
105	0x3c2e685b	0.0106449975
106	0xbc259cb5	-0.010108163
107	0x3d863d65	0.06554679
108	0xbb9b273f	-0.004734903
109	0x3dad7c5b	0.084709845
110	0xbd647d96	-0.05578383
111	0xbda5e09b	-0.08099481
112	0x3caec3e8	0.02133365
113	0x3d2aff1d	0.0417472
114	0x3d871cbb	0.06597277
115	0x3b5495c4	0.00324379
116	0xbcca306a	-0.024681289
117	0x3d3b5395	0.045734007
118	0xbcf6338b	-0.030053874
119	0xbc25edb7	-0.010127476
120	0x3d83cfcb	0.06436118
121	0xbd8624cb	-0.065499865
122	0xbd086393	-0.033298086
123	0xbd7f98ec	-0.062401697
124	0x3daf7873	0.08567896
125	0x3d44e6cd	0.04807167
126	0xbc88a958	-0.016682312
127	0x3d182429	0.03714386
128	0x3d1931d8	0.03740105
129	0xbd383b8f	-0.044978675
130	0xbdaa7744	-0.08323529
131	0xbdb46725	-0.08808736
132	0xbca2ef3c	-0.019889466
133	0xbd33c3a8	-0.043887764
134	0x3d3e5f1d	0.046477426
135	0xbd53cd44	-0.05170943
136	0x3d98bb79	0.074576326
137	0x3cd17853	0.02557007
138	0xbcb22b04	-0.021749027
139	0x3d8340de	0.06408857
140	0xbd65ad22	-0.056073315
141	0x3d746c22	0.059673436
142	0x3daa2f21	0.083097704
143	0xbb615d8c	-0.0034388034
144	0x3d57ce8d	0.052687217
145	0x3d4ac12c	0.04950063
146	0x3c2ec4f2	0.010667073
147	0x3a940744	0.0011293669
148	0x3c1c35c3	0.009534302
149	0xbcb759ba	-0.022381652
150	0xbd85f66e	-0.06541143
151	0xbd639199	-0.055558775
152	0xbd9da06a	-0.07696612
153	0xbc69be61	-0.014266581
154	0xbc2257e4	-0.00990865
155	0xbcd9e298	-0.026597306
156	0xbd5b06fe	-0.053473465
157	0xbd043210	-0.032274306
158	0x3cefaefe	0.029258247
159	0xbd8a1c3f	-0.06743669
160	0xbdb4f739	-0.088362165
161	0x3c7221ff	0.014778613
162	0x3d460126	0.04834094
163	0x3ccc73a5	0.024957487
164	0xbcb2ac65	-0.02181072
165	0x3ca3395f	0.019924818
166	0xbcc5877b	-0.024112454
167	0x3da4f68b	0.08054837
168	0x3cf55cfb	0.029951563
169	0x3cbea99d	0.023274237
170	0x3ccb080f	0.024784116
171	0xbcc45093	-0.023964202
172	0xbc775bcc	-0.01509757
173	0xbd42db11	-0.0475722
174	0x3ca61db6	0.02027784
175	0x3da929bd	0.08259914
176	0xbd8a1cb5	-0.06743757
177	0xbbc95a7e	-0.0061448207
178	0x3cdfaae6	0.02730317
179	0xbcd717ee	-0.026256528
180	0x3bdd4215	0.0067522624
181	0x3d70d07f	0.058792587
182	0x3d4f0f9b	0.050551992
183	0x3d814b85	0.06313232
184	0xbd55becb	-0.052183907
185	0xbc9bea47	-0.01903261
186	0xbd7e2058	-0.062042564
187	0xbd239b26	-0.039942883
188	0xbd6b0e8e	-0.057386927
189	0x3d3ce612	0.04611785
190	0x3da8b7e9	0.08238203
191	0x3d6c7758	0.057731003
192	0x3d9c9a5d	0.0764663
193	0xbcfa91d5	-0.030587116
194	0x3d93220e	0.0718423
195	0x3d9ec353	0.07752099
196	0x397fdcb7	0.00024400918
197	0xbd87731a	-0.06613751
198	0x3daa0e8f	0.08303558
199	0x3c532519	0.012887263
200	0xbd6dc691	-0.058050696
201	0xbdaf412f	-0.08557355
202	0xbd24a560	-0.040196776
203	0x3cc9eac9	0.024648087
204	0x3dac1274	0.08401957
205	0x3d3c3710	0.04595095
206	0xbda05054	-0.078278214
207	0x3d0c95e9	0.034322653
208	0x3c92755d	0.017878229
209	0xbdb09a19	-0.08623142
210	0xbcb2fed1	-0.021850022
211	0xbdad1306	-0.08450894
212	0x3d88e0e7	0.06683522
213	0xbb64aa8a	-0.0034891688
214	0x3c796692	0.015222209
215	0xbd52229e	-0.051302545
216	0xbd535a21	-0.051599625
217	0x3cfd8b19	0.030950116
218	0xbd065872	-0.03279919
219	0xbdb1c6ae	-0.08680473
220	0x3d57bbe6	0.05266943
221	0xbd81d660	-0.06339717
222	0xbd7e70d7	-0.06211933
223	0x3d00041d	0.031253923
224	0x3d8bbf24	0.068235666
225	0x3d02f334	0.031970218
226	0xbd157dfa	-0.036497094
227	0xbd435e3a	-0.047697283
228	0x3c7189ec	0.014742356
229	0x3c856148	0.016281739
230	0xbcb03d3c	-0.021513574
231	0x3da43c1c	0.080192775
232	0xbd8e75ab	-0.06956037
233	0x3d533ffd	0.051574696
234	0x3c1faee7	0.00974629
235	0xbcbbea32	-0.022938821
236	0x3d430fa3	0.047622334
237	0xbdb2c00b	-0.087280355
238	0x3cac866b	0.02106019
239	0x3d8c7e88	0.068600714
240	0x3a9bf723	0.0011899214
241	0xbd846198	-0.06463927
242	0x3da7e9ae	0.08198868
243	0xbd5de1a8	-0.05417028
244	0xbcb6f173	-0.022331929
245	0xbcb1f728	-0.021724299
246	0x3d16eccd	0.036846925
247	0x3d512382	0.051059254
248	0x3d90f451	0.0707785
249	0xbbc433ea	-0.005987634
250	0xbd0f5a0f	-0.034997996
251	0xbd2ef30a	-0.04271225
252	0xbd91b934	-0.07115403
253	0x3cdab117	0.026695771
254	0xbd909127	-0.070589356
255	0x3d9a081e	0.075210795

lstm.bias_ih_l0 f4 [512]
0	0x3da68f60	0.08132815
1	0x3d1da345	0.038485784
2	0x3e00b2c1	0.12568189
3	0x3df0e560	0.117625
4	0x3dda3f81	0.10656644
5	0x3d829618	0.06376284
6	0x3d994758	0.07484311
7	0x3bccb317	0.006246935
8	0x3e400ffb	0.18756096
9	0x3e1f8ece	0.1558182
10	0x3d159910	0.036522925
11	0x3ceb7a34	0.028744794
12	0x3e07b7d7	0.13253723
13	0x3d91be7f	0.07116412
14	0x3dfd7983	0.12376692
15	0x3e1be154	0.15222675
16	0x3dd307b1	0.103042014
17	0x3d7f9674	0.062399343
18	0x3d87ac6b	0.06624683
19	0x3d75019f	0.059816
20	0x3e1db9d3	0.15402918
21	0x3d1fd087	0.039017227
22	0x3e012346	0.12611112
23	0xbdcdd2da	-0.10049982
24	0x3d9e023c	0.0771527
25	0x3e2c7754	0.16842395
26	0x3df80a4c	0.12111339
27	0x3c837871	0.016048642
28	0x3d210aeb	0.039317053
29	0x3de38074	0.11108485
30	0x3de47fba	0.111571744
31	0x3c83fcc6	0.016111743
32	0x3dd467f7	0.10371392
33	0x3e0ce59a	0.13759461
34	0x3df7c132	0.12097396
35	0x3dd8405b	0.1055915
36	0xbd35678c	-0.044288203
37	0x3dccbb64	0.099966794
38	0x3d93c925	0.072161
39	0x3d6fcef3	0.05854697
40	0x3d40c05c	0.04705845
41	0x3d8437bf	0.06455945
42	0x3e128d90	0.14311814
43	0x3da21631	0.07914389
44	0x3df656be	0.120282635
45	0x3d8f1b59	0.06987638
46	0x3e501cc4	0.20323473
47	0x3d3b5eaf	0.045744594
48	0x3dd2a450	0.10285246
49	0x3de409c4	0.11134675
50	0x3dad4b9d	0.08461688
51	0x3d68cfc7	0.056838777
52	0x3dd0c4e8	0.10193807
53	0xbd65295d	-0.05594765
54	0x3b3ca007	0.0028781907
55	0x3e419b1f	0.1890683
56	0x3e1bd968	0.15219653
57	0x3de2fb0f	0.11083042
58	0x3d9e7862	0.07737805
59	0x3dcc8bee	0.09987627
60	0x3dcb27d6	0.099197075
61	0x3ddebb28	0.10875541
62	0x3e1a2d46	0.15056333
63	0x3e2f3ab5	0.17112239
64	0x3d6d4081	0.057922844
65	0x3d38c27a	0.045107342
66	0x3e1a283f	0.15054415
67	0x3e45ecf3	0.1932867
68	0x3dfc69c1	0.123248585
69	0x3e380854	0.17971927
70	0x3d72cd89	0.059278045
71	0x3d914f05	0.0709515
72	0x3e3d0084	0.18457228
73	0x3e0d8a4b	0.13822286
74	0x3cf045b2	0.029330108
75	0x3d0cea70	0.034403265
76	0xbd45892f	-0.04822653
77	0x3df27628	0.11838943
78	0x3e197da3	0.14989333
79	0x3e470d0f	0.19438575
80	0x3cc4331e	0.023950156
81	0x3cf233c0	0.029565692
82	0x3cf5400b	0.029937765
83	0x3de0431e	0.109503016
84	0x3cbbd3b8	0.022928104
85	0x3db217c4	0.08695939
86	0x3da31e11	0.07964719
87	0x3defb971	0.11705292
88	0x3dc0f104	0.0942097
89	0x3d43bda5	0.04778828
90	0x3e1bc7da	0.15212956
91	0x3e069a37	0.13144766
92	0x3e1a157f	0.15047263
93	0x3dacaeb7	0.08431762
94	0x3da6d8e1	0.08146835
95	0x3d9ccf63	0.076567434
96	0x3e37d6ee	0.17953083
97	0x3cd24694	0.02566842
98	0x3cd343b6	0.025789123
99	0x3d4b4168	0.049622923
100	0x3dd5bcd1	0.104364045
101	0x3ccbc2cf	0.024873165
102	0x3d478b86	0.048717044
103	0x3e4bd0e3	0.19903903
104	0xbd6ff0f5	-0.058579404
105	0x3db5d4b8	0.088784635
106	0x3e52422c	0.20533055
107	0x3e255d57	0.16148888
108	0x3e170817	0.1474918
109	0x3da29e68	0.0794037
110	0x3d35c49f	0.044376966
111	0x3d86afea	0.06576522
112	0x3db90d65	0.09035758
113	0x3d97923a	0.074009374
114	0x3cfa0ee1	0.030524673
115	0x3e515928	0.20444167
116	0x3e262c08	0.16227734
117	0x3c79b1b8	0.015240125
118	0x3e0672bf	0.1312971
119	0x3e0419e1	0.12900497
120	0x3d739662	0.059469588
121	0x3e031dd2	0.12804344
122	0x3e3bce9b	0.18340532
123	0x3d8a88a4	0.067643434
124	0x3d826dda	0.06368609
125	0x3e0fe13a	0.14050761
126	0x3daaf133	0.08346786
127	0x3d455e15	0.048185427
128	0xbd8be78f	-0.06831276
129	0x3da40908	0.08009535
130	0xbd89ade8	-0.06722623
131	0x3c0c618d	0.00856818
132	0xbd9e7b79	-0.07738394
133	0x3d9e18aa	0.07719548
134	0x3c98c307	0.018647684
135	0xbd166035	-0.036712844
136	0x3cb04333	0.021516418
137	0x3bee661f	0.0072753574
138	0xbb8b1646	-0.0042445986
139	0x3d08faba	0.033442236
140	0xbd2b12e9	-0.04176608
141	0xbda87da9	-0.08227093
142	0xbd534b5f	-0.05158555
143	0xbc344416	-0.011002561
144	0xbcafee10	-0.021475822
145	0x3d16fb05	0.036860485
146	0xba143b98	-0.0005654632
147	0xbb188c18	-0.0023276862
148	0xbda0ed2b	-0.07857736
149	0xbd84e2f6	-0.06488602
150	0xbd494adf	-0.04914367
151	0x3d3c7ee1	0.04601944
152	0x3d8ec2e8	0.06970769
153	0xbd6d42d3	-0.057925057
154	0x3d236fe8	0.039901644
155	0xbdb1fa78	-0.08690351
156	0xbd4d344f	-0.050098713
157	0x3c32062e	0.010865731
158	0xbca816c9	-0.020518677
159	0xbca9591d	-0.020672375
160	0xbd2729fb	-0.04081152
161	0xbc143984	-0.009046916
162	0x3c19b6fa	0.009382004
163	0xbd1ef0bf	-0.038803812
164	0x3d11cb18	0.035594076
165	0x3cd69748	0.026195183
166	0xbd9d56f3	-0.076826
167	0x3ccac559	0.024752306
168	0xbdaf1499	-0.085488506
169	0x3d7011ad	0.058610607
170	0x3d26483a	0.040596224
171	0x3dac0157	0.08398693
172	0xbccbec5e	-0.024892982
173	0x3d499b34	0.04922028
174	0xbd43ece8	-0.047833353
175	0x3d6b2d64	0.057416335
176	0xbd53a729	-0.05167309
177	0xbd80f3c5	-0.06296495
178	0xbbeea415	-0.0072827437
179	0x3c868f8c	0.01642587
180	0x3cd41633	0.025889492
181	0xbd45f0ff	-0.048325535
182	0x3db3afc2	0.087737575
183	0xbbb60f87	-0.00555605
184	0x3c04e87a	0.008112067
185	0x3d9e6e42	0.07735874
186	0xbda3893b	-0.07985159
187	0xbcc6502b	-0.024208149
188	0xbbb9defb	-0.0056723333
189	0xbcad4398	-0.021150395
190	0xbda33232	-0.07968558
191	0x3da94d83	0.08266737
192	0x3c7186e0	0.014741629
193	0xbd7dc45a	-0.061954834
194	0xbb81eb08	-0.0039647855
195	0xbd90c1d2	-0.07068218
196	0x3c94f278	0.018182024
197	0xbc675f27	-0.014121807
198	0x3d828c78	0.063744485
199	0xbd808a3f	-0.06276368
200	0x3d9e7465	0.07737044
201	0x3d043f74	0.032287076
202	0xbcee6526	-0.029100966
203	0xbd25e03f	-0.04049706
204	0xbd0c7a9c	-0.034296617
205	0xbd370aea	-0.044688143
206	0x3d90d748	0.07072312
207	0x3c462a45	0.012095039
208	0xbca08a26	-0.019597124
209	0x3c2ff5b5	0.010739733
210	0xbba418af	-0.0050078253
211	0xbca5ca13	-0.020237958
212	0xbd8ab25b	-0.067723
213	0x3c6ef93e	0.014585791
214	0x3d4b2b4e	0.049601845
215	0xbcf9cb28	-0.03049238
216	0xbd1e721f	-0.038683053
217	0xbccc0e33	-0.024909114
218	0xbd77a0c6	-0.06045606
219	0xbc5eadab	-0.01359121
220	0xbd8055d5	-0.06266371
221	0xbcbd70da	-0.0231251
222	0x3c540e66	0.012942886
223	0x3c2cb7eb	0.010541896
224	0x3b537d66	0.0032270788
225	0x3d74504a	0.059646882
226	0x3ca8b53e	0.020594236
227	0x3b51861d	0.0031970807
228	0x3c9958b1	0.01871905
229	0x3cc66950	0.024220139
230	0x3d986c1d	0.07442496
231	0x3b9e4236	0.0048296703
232	0x3d75110e	0.059830718
233	0x3d4026b6	0.046911918
234	0x3a0b0de0	0.0005304497
235	0x3d21a87c	0.03946732
236	0xbc798daf	-0.015231534
237	0xbd0492d6	-0.032366596
238	0xbcdc99bf	-0.02692878
239	0x3d06e72c	0.032935306
240	0xbbbbe8a6	-0.005734521
241	0x3d50d11b	0.05098067
242	0x3d11da41	0.035608534
243	0x3d976e92	0.073941365
244	0xbd838547	-0.06421905
245	0x3aacd5cb	0.0013186274
246	0xbd7768ea	-0.06040279
247	0xbd853e00	-0.06505966
248	0x3c646b63	0.013941619
249	0x3d68d3cf	0.05684262
250	0xbd01f423	-0.031726968
251	0xbd441e84	-0.047880664
252	0x3b13093d	0.0022435926
253	0x3daece9a	0.085355
254	0xbd747b7b	-0.059688073
255	0xbd25f551	-0.040517155

lstm.bias_hh_l0 f4 [512]
0	0x3ca1f91b	0.019772103
1	0x3ce51a4a	0.027966637
2	0x3db7339c	0.089453906
3	0x3e090987	0.1338254
4	0x3d9c548a	0.07633312
5	0x3db9125f	0.09036707
6	0x3e34729d	0.17621846
7	0x3d5ba44e	0.05362349
8	0x3ddaa0d3	0.10675206
9	0x3ddd2cc0	0.10799551
10	0x3d344d24	0.04401888
11	0x3e05994e	0.13046762
12	0x3e37619c	0.17908329
13	0x3db1c083	0.08679297
14	0x3d839112	0.06424154
15	0x3e0f4c64	0.13993984
16	0x3e37e5ee	0.17958805
17	0x3c5050ca	0.012714574
18	0x3e0168c0	0.12637615
19	0x3dc396a7	0.09550219
20	0x3d6c363b	0.057668906
21	0x3e0fd689	0.14046682
22	0x3e410541	0.1884966
23	0x3d717261	0.05894697
24	0x3de5f14e	0.11227666
25	0x3d43acb0	0.04777211
26	0x3d5567e2	0.052101023
27	0x3da9d78e	0.08293067
28	0x3d4dc94a	0.050240792
29	0x3e16b085	0.14715774
30	0x3e07a437	0.13246237
31	0x3def12f2	0.116735354
32	0x3e1e59a1	0.15463878
33	0x3e30a4a7	0.1725031
34	0x3d6217ff	0.055198666
35	0x3cdb883f	0.026798366
36	0x3d184c4c	0.037182137
37	0x3e0ee637	0.13955007
38	0x3cbf0f43	0.023322707
39	0x3da2dee1	0.07952667
40	0x3dcb9785	0.099410094
41	0x3e248a42	0.16068366
42	0x3d66ef38	0.05638048
43	0xbcbd3024	-0.023094244
44	0x3d72623b	0.05917571
45	0x3d0422b8	0.032259673
46	0x3e48afa4	0.19598252
47	0x3e241a97	0.16025768
48	0x3d05e12b	0.03268544
49	0xbca500c2	-0.020141963
50	0x3db06181	0.086123474
51	0x3df6bd6f	0.1204785
52	0x3d9b56c6	0.0758491
53	0x3d04f23c	0.032457575
54	0x3d617f39	0.05505297
55	0x3db94ad7	0.09047478
56	0x3e049f24	0.12951332
57	0x3d8db7fa	0.06919856
58	0x3dd5f68d	0.104474165
59	0x3e334073	0.17505054
60	0x3c1727d7	0.009225807
61	0x3db76386	0.089545295
62	0x3e150562	0.14552835
63	0x3e06d884	0.13168532
64	0x3d53b6cf	0.05168801
65	0x3e2fa903	0.17154317
66	0x3ce54762	0.02798814
67	0x3de42bd7	0.11141174
68	0x3d8efa6f	0.0698136
69	0x3e1e73e6	0.15473899
70	0x3de181da	0.11011095
71	0x3e276822	0.16348317
72	0x3ce336d2	0.027736101
73	0x3dce0af6	0.100606844
74	0x3ce61929	0.02808817
75	0x3dc9169c	0.098187655
76	0x3d45dad3	0.04830439
77	0x3c7389f5	0.0148644345
78	0x3d930d39	0.071802564
79	0x3df5047b	0.11963745
80	0x3e351aa8	0.1768595
81	0x3d6ea1e3	0.058259856
82	0x3e19182d	0.14950629
83	0x3e33838a	0.17530647
84	0x3de2f0b4	0.11081067
85	0x3e435cea	0.19078413
86	0xbbe98a16	-0.007127057
87	0x3da51d35	0.080622114
88	0x3e1c28e8	0.1524998
89	0x3dc05ff5	0.09393302
90	0x3e5274cc	0.20552367
91	0x3d933ef3	0.07189741
92	0x3ddd2098	0.107972324
93	0xbb9769a4	-0.0046207476
94	0x3da2ba25	0.079456605
95	0x3ceca8be	0.028889056
96	0x3d8a0141	0.067385204
97	0x3d86292c	0.06550822
98	0x3c179aea	0.009253243
99	0x3e1848c1	0.14871503
100	0x3d8faa84	0.07014945
101	0x3dc37a4c	0.09544811
102	0x3e191a72	0.14951494
103	0x3d16b1e2	0.036790736
104	0xbc6e25e9	-0.014535406
105	0xbc2abf9f	-0.010421663
106	0x3e1b2627	0.15151273
107	0x3d3ae84e	0.0456317
108	0x3e161cc3	0.14659409
109	0x3d00e6c4	0.031470075
110	0x3d844135	0.0645775
111	0x3b3c4982	0.0028730338
112	0xbd290591	-0.041265074
113	0x3e16d3f4	0.14729291
114	0x3dd309c8	0.103046
115	0x3db3533b	0.08756109
116	0x3e222e96	0.15838084
117	0x3caa776e	0.020808902
118	0x3e0a6044	0.13513285
119	0x3d0e9c0d	0.03481679
120	0x3d8df8bb	0.06932207
121	0x3d4e51bb	0.050370913
122	0x3d4a4f69	0.049392138
123	0x3df907d5	0.12159697
124	0x3ddda1a2	0.10821845
125	0x3da34cea	0.079736546
126	0x3e2bbcd7	0.16771255
127	0x3d182d38	0.0371525
128	0x3d3a5a98	0.045496553
129	0x3d3a4dca	0.04548434
130	0x3c5e32f0	0.013561949
131	0xbd2aa33f	-0.04165959
132	0xbd899ce8	-0.067193806
133	0xbd6950fd	-0.056962002
134	0xbd160372	-0.03662438
135	0x3cd8c179	0.026459442
136	0x3db1c650	0.08680403
137	0xbdaf01d5	-0.08545271
138	0x3d0f8dfc	0.035047516
139	0xbd05313b	-0.032517653
140	0xbca4ea73	-0.020131325
141	0xbd327a28	-0.04357353
142	0xbc923c8d	-0.017851138
143	0xbcaf304b	-0.021385333
144	0x3d66a469	0.056309137
145	0xbd374e1d	-0.04475223
146	0x3cd6ab30	0.026204675
147	0x3cca9966	0.02473135
148	0xbd8f66a0	-0.07001996
149	0x3d9c150c	0.07621202
150	0x3cb2aa2a	0.021809656
151	0xbdaddb72	-0.084891215
152	0xbd5a2c99	-0.053265188
153	0x3a6b4ae4	0.0008975698
154	0x3d4b1dc2	0.049588926
155	0xbd331abf	-0.04372668
156	0xbd640cef	-0.055676397
157	0x3d4ef28d	0.050524283
158	0xbd91d23e	-0.07120179
159	0x3d202166	0.03909435
160	0xbd915c84	-0.07097724
161	0x3a5baa14	0.00083795306
162	0xbbfc05ed	-0.007691136
163	0x3c7f337f	0.0155762425
164	0xbc6d7abe	-0.014494596
165	0xbda6396e	-0.081164226
166	0xbd8d5f8e	-0.06902991
167	0x3ba5d06a	0.0050602453
168	0x3da372f3	0.07980909
169	0xbd80fdf1	-0.062984355
170	0x3db15937	0.086595945
171	0x3d3dab9c	0.046306238
172	0x3d757ff3	0.059936475
173	0x3c4f5c19	0.012656235
174	0xbc82ae21	-0.015952172
175	0x3d48b8e0	0.049004436
176	0x3cb40bfb	0.021978369
177	0xbd5d99e8	-0.054101855
178	0xbd6d2e38	-0.057905406
179	0xbc712c69	-0.014720061
180	0xbd5f4b5a	-0.05451522
181	0xbd74a10e	-0.059723906
182	0xbda531ad	-0.080661155
183	0xbd4f2f35	-0.05058213
184	0xbced00c4	-0.02893103
185	0x3d52ddfa	0.051481225
186	0x3cfde18b	0.030991336
187	0x3d05d4ac	0.032673523
188	0xbd4c4ecc	-0.049879834
189	0xbd36117f	-0.04445028
190	0x3ccb39a0	0.024807751
191	0x3cf316e6	0.029674005
192	0x3cc557c0	0.024089694
193	0xbd488af5	-0.048960645
194	0xbda62b3f	-0.08113717
195	0x3d25ff8f	0.040526923
196	0xbcc6048d	-0.024172092
197	0x3d525d05	0.05135824
198	0xbc7ca9ee	-0.015421374
199	0x3bccbf2c	0.0062483754
200	0x3d89fc1c	0.06737539
201	0xbaf8245a	-0.0018931732
202	0xbd334064	-0.04376258
203	0xbcca6a71	-0.024708958
204	0xbd115ff2	-0.03549189
205	0x3d8ecf3b	0.0697312
206	0x3d2041ac	0.03912513
207	0xbd927508	-0.07151228
208	0xbd86cc76	-0.065819666
209	0x3d2f9bcb	0.042873185
210	0xbd4f9e1c	-0.050687894
211	0xbcdc7b0d	-0.026914144
212	0xbd9f56e0	-0.07780242
213	0x3db43697	0.08799475
214	0x3c2dc033	0.010604906
215	0xbbba04e7	-0.005676854
216	0xbd5e9748	-0.05434349
217	0x3d85d3bb	0.06534525
218	0xbce4e448	-0.027940884
219	0xbd3a4871	-0.04547924
220	0xbb49544e	-0.0030720416
221	0xbcdc324f	-0.026879458
222	0xbd82e752	-0.06391777
223	0xbda9fa9b	-0.08299752
224	0x3d6ad4d6	0.057331882
225	0xbd543dcf	-0.051816758
226	0x3d960a3a	0.07326169
227	0xbcaab020	-0.020835936
228	0xbb5a5bf9	-0.003331898
229	0x3b5a99ab	0.0033355753
230	0xbd995077	-0.074860506
231	0x3d47a0c6	0.04873731
232	0x3bd88b67	0.006608415
233	0xbc3962f9	-0.011315101
234	0x3c8c20b3	0.017105436
235	0x3d8f5dad	0.07000289
236	0x3d818582	0.06324293
237	0xbc3afd7e	-0.011412976
238	0xbc9945ee	-0.018710103
239	0xbb5ee5c0	-0.0034011453
240	0x3b13b75d	0.0022539713
241	0xbd85eefc	-0.06539723
242	0x3b19a2df	0.0023443026
243	0xbc5dafdc	-0.013530698
244	0xbc4c5da3	-0.012473497
245	0xb9eee87e	-0.00045568118
246	0xbd0626a7	-0.032751705
247	0xbda47190	-0.08029473
248	0x3ce15e96	0.027510922
249	0x3c42b5e7	0.011884189
250	0xbc948ea8	-0.01813443
251	0xbd8f40c0	-0.06994772
252	0x3d7ce5b6	0.061742507
253	0x3d58428a	0.05279783
254	0xbb41898f	-0.0029531454
255	0x3d3897f8	0.045066804

fc.weight f4 [2, 128]
0	0xbe2071cf	-0.15668415
1	0xbe1aa6cd	-0.15102692
2	0xbbc8e803	-0.0061311736
3	0xbe08b284	-0.13349348
4	0x3c59b31c	0.013287332
5	0xbd889832	-0.06669654
6	0x3e25a0bb	0.16174595
7	0x3e06ee10	0.13176751
8	0x3d685573	0.056722116
9	0xbdaefe8b	-0.08544644
10	0x3dcb9836	0.09941141
11	0x3e2d1a1f	0.16904496
12	0x3e096eda	0.13421193
13	0x3d81a773	0.063307665
14	0xbd933249	-0.071873255
15	0x3e02aa6c	0.12760323
16	0x3ce8fb90	0.028440267
17	0x3e136247	0.14392959
18	0xbdcde6f0	-0.100538135
19	0xbdbc1fef	-0.09185778
20	0xbe1d6ac7	-0.15372764
21	0x3e1f76b3	0.15572624
22	0x3e1c6e3a	0.15276423
23	0x3d5ef065	0.054428477
24	0xbdd9c889	-0.10633952
25	0x3ddf74ad	0.10910926
26	0xbe008c58	-0.12553537
27	0xbd7ac5c7	-0.06122377
28	0xbc79ac7d	-0.015238878
29	0x3dbebd77	0.09313481
30	0x3e0ac998	0.13553464
31	0xbe21fc7a	-0.15818968
32	0x3ddaf425	0.10691098
33	0x3e30d552	0.17268875
34	0x3e0ed7f5	0.13949569
35	0xbd895be5	-0.067069806
36	0x3d801080	0.06253147
37	0xbd83c8c9	-0.06434781
38	0x3e12476c	0.14285058
39	0xbd5311dd	-0.051530708
40	0x3e034330	0.12818599
41	0x3e20bb5a	0.15696469
42	0xbe077801	-0.13229372
43	0x3d311ac7	0.043238427
44	0xbe028050	-0.1274426
45	0xbdf19612	-0.11796202
46	0xbdcffa9e	-0.10155223
47	0x3e25d446	0.16194257
48	0x3d887578	0.066630304
49	0x3dd16f72	0.10226335
50	0xbe294c6b	-0.16533057
51	0x3def7dc6	0.11693911
52	0xbd994230	-0.074833274
53	0xbc595124	-0.013263974
54	0x3e23dfb6	0.16003308
55	0xbe050c92	-0.12993076
56	0xbda01c1e	-0.07817863
57	0xbe178f5b	-0.1480078
58	0xbdf2d7ee	-0.118575916
59	0x3dae6e9f	0.08517193
60	0xbe031bcd	-0.12803574
61	0x3e1df732	0.15426329
62	0xbd9c084e	-0.076187715
63	0xbe24e1e7	-0.161018
64	0x3e14e902	0.1454201
65	0x3dd0fcb2	0.10204448
66	0xbe1f14b0	-0.15535235
67	0xbd978c61	-0.07399822
68	0x3d950234	0.07275811
69	0x3dec1b44	0.11528638
70	0x3d9540c1	0.072877415
71	0xbe28204d	-0.16418572
72	0x3d9e6e84	0.07735923
73	0x3d437194	0.04771574
74	0x3e240692	0.16018131
75	0x3d5386c2	0.051642187
76	0xbd451975	-0.04811998
77	0xbdc41518	-0.09574336
78	0xbdda9730	-0.10673368
79	0xbe025e68	-0.12731326
80	0x3d96b21d	0.07358191
81	0x3d6b257c	0.057408795
82	0x3dab6755	0.083693184
83	0xbdb42582	-0.087962165
84	0xbdfaa6a7	-0.12238818
85	0xbd070534	-0.032963946
86	0xbde1f38b	-0.1103278
87	0x3c7aa035	0.015296985
88	0x3d3afbbc	0.04565023
89	0x3cc3a3af	0.023881761
90	0x3d72ec64	0.05930747
91	0xbdc86f59	-0.09786863
92	0xbdfdd086	-0.12393288
93	0x3dd52db9	0.104091115
94	0x3dc9a0ae	0.098451
95	0xbdc66837	-0.09687846
96	0xbdb31d15	-0.08745781
97	0x3dfbf4e1	0.12302566
98	0xbde576ed	-0.11204324
99	0xbe36ef08	-0.1786462
100	0x3dedd5c6	0.1161304
101	0x3e191d32	0.14952543
102	0x3e18bc48	0.14915574
103	0xbcd7beab	-0.026336035
104	0x3caccf4c	0.02109494
105	0xbd8f389b	-0.069932185
106	0xbd5a264f	-0.05325919
107	0xbe2afee3	-0.16698794
108	0x3e31b31a	0.17353478
109	0x3caecb07	0.021337045
110	0xbe2a7e91	-0.16649844
111	0xbcf05157	-0.02933566
112	0x3de00cf5	0.10939971
113	0x3de605f7	0.112316065
114	0x3da7d372	0.08194627
115	0xbd8666a4	-0.06562546
116	0xbe1ab7b1	-0.15109135
117	0xbe3288d0	-0.17435002
118	0xbe03a70d	-0.12856694
119	0x3e14a521	0.14516117
120	0xbe1ba058	-0.15197885
121	0xbe06f85f	-0.13180684
122	0x3d52ddf9	0.05148122
123	0xbdbf7412	-0.093483105
124	0xbe033743	-0.1281405
125	0x3d7f7d7d	0.062375534
126	0xbe019fc6	-0.12658605
127	0xbd5ca107	-0.053864505
128	0x3d9c3758	0.076277435
129	0x3df6f075	0.12057582
130	0xbdce018e	-0.1005889
131	0x3ded369b	0.11582681
132	0xbe37704f	-0.17913936
133	0x3d3dd405	0.046344776
134	0xbd0afe76	-0.03393408
135	0xbd2fe418	-0.042942137
136	0xbe23cadb	-0.15995352
137	0x3dd7ed5f	0.10543322
138	0x3bf55633	0.0074870824
139	0xbe3071da	-0.17230931
140	0xbd5d0b29	-0.05396572
141	0xbdfb7d88	-0.122798026
142	0x3d61066c	0.054937765
143	0xbdd33ed0	-0.10314715
144	0xbe2ae6b0	-0.16689563
145	0xbe1d83b0	-0.15382266
146	0x3d8819c9	0.06645543
147	0x3de68867	0.112564854
148	0x3d90be37	0.070675306
149	0xbd56ffc5	-0.052490015
150	0xbdb4a565	-0.08820609
151	0x3d952046	0.07281546
152	0x3d82b8c7	0.063829
153	0xbdbbe420	-0.09174371
154	0x3dee6157	0.1163966
155	0x3dc20ff6	0.094757006
156	0xbdc7b12f	-0.09750592
157	0xbe0f74ae	-0.14009354
158	0xbd424a49	-0.047434125
159	0x3d9451a6	0.07242136
160	0xbe13635c	-0.14393371
161	0xbe1a7ae5	-0.15085943
162	0xbe2c7f3e	-0.16845414
163	0x3df11b4f	0.11772787
164	0xbd6986c3	-0.057013284
165	0x3e06faec	0.13181657
166	0xbda6f902	-0.08152963
167	0x3e2e989c	0.17050403
168	0xbe282127	-0.16418897
169	0xbe1ba3d8	-0.1519922
170	0x3d1cee10	0.03831297
171	0x3dc4dde3	0.09612634
172	0x3da70641	0.0815549
173	0x3e110505	0.14162071
174	0x3dcc100e	0.09964
175	0xbc8d8390	-0.017274648
176	0xbe29d3d5	-0.16584714
177	0xba9b33d4	-0.0011841008
178	0x3d734b00	0.059397697
179	0xbe0424d2	-0.12904671
180	0x3dc4b94d	0.09605656
181	0x3d9924c8	0.074777186
182	0xbe0746e2	-0.13210633
183	0x3e0a92a6	0.13532504
184	0x3dc6b74c	0.0970293
185	0x3e2582f5	0.16163237
186	0x3df72812	0.1206819
187	0xbdfdca06	-0.123920485
188	0x3df3219d	0.118716456
189	0xbe2047da	-0.15652409
190	0x3e25c443	0.16188149
191	0x3d34020c	0.043947265
192	0xbde51397	-0.11185377
193	0xbdd734a2	-0.10508086
194	0x3e14ec17	0.14543186
195	0x3e184f5c	0.14874023
196	0xbe148e16	-0.14507326
197	0xbdfe16a9	-0.12406666
198	0xbde08769	-0.109633274
199	0x3dd41774	0.10356036
200	0xbe0a22a4	-0.13489777
201	0xbe1d295a	-0.15347806
202	0xbe31377f	-0.17306326
203	0xbdf155af	-0.11783921
204	0x3d6f1678	0.058371037
205	0x3d03141b	0.032001596
206	0x3dbd5e18	0.092464626
207	0x3dc2dc26	0.09514646
208	0xbe256888	-0.16153157
209	0xbdc340d2	-0.09533848
210	0xbdbcdbf0	-0.09221637
211	0x3e0742c0	0.13209057
212	0x3d8e37fb	0.06944271
213	0x3e2a39bf	0.16623591
214	0x3dfef43a	0.12448926
215	0xbe282c51	-0.16423155
216	0xbe22a2af	-0.15882371
217	0xbe03fcd4	-0.12889415
218	0xbe13cced	-0.14433642
219	0x3e16da49	0.14731707
220	0x3e2659a1	0.16245128
221	0xbdb5a175	-0.08868686
222	0xbe302e8e	-0.17205259
223	0x3c368057	0.011138997
224	0x3e234d55	0.15947469
225	0xbcd66ad6	-0.02617399
226	0x3e278b55	0.16361745
227	0x3e280c94	0.16411048
228	0xbdaa12db	-0.08304378
229	0xbe342d49	-0.175954
230	0xbd882540	-0.0664773
231	0x3e335890	0.17514253
232	0x3dd66b2f	0.104696624
233	0x3dfb2fa9	0.1226495
234	0x3e0e2e27	0.13884793
235	0x3e18dac5	0.14927204
236	0xbd7adc8d	-0.06124549
237	0xbe1da85e	-0.15396258
238	0x3e1f3d13	0.15550642
239	0x3dfe598e	0.12419425
240	0xbdb911dc	-0.090366095
241	0xbdbcc1b1	-0.09216631
242	0xbdf97aec	-0.121816486
243	0x3e084e06	0.13311014
244	0xbbc4ba1b	-0.006003631
245	0x3e07e08e	0.13269255
246	0x3e0a0e58	0.13482034
247	0xbe08d1f4	-0.13361341
248	0x3df16074	0.11785975
249	0x3d8543d2	0.06507076
250	0xbe26a7c0	-0.16274929
251	0x3dbfa4d2	0.09357609
252	0x3d93896f	0.07203948
253	0xbe07009c	-0.13183826
254	0x3e25b6a7	0.16182958
255	0x3e14123e	0.14460084

fc.bias f4 [2]
0	0xbd5c28ac	-0.053749725
1	0x3d56d870	0.052452505
